MinIO/checkpoints/model.pt (torch, 251612 bytes, 10 tensors)

conv1.weight f4 [6, 3, 5, 5]
0	0xbdd39c2f	-0.10332524
1	0x3d12a748	0.035804063
2	0xbc017bc2	-0.007903041
3	0xbca8f345	-0.020623812
4	0x3c516b3e	0.012781916
5	0x3cbc57ca	0.02299108
6	0xbd9bdc95	-0.07610432
7	0x3dbb25d8	0.091380775
8	0xbd8e51a9	-0.06949169
9	0xbd0b4f0e	-0.03401094
10	0x3dcd7652	0.100323334
11	0xbd1724b3	-0.036900233
12	0xbdc99f84	-0.09844878
13	0x3d9622fe	0.07330893
14	0xbdbf5c80	-0.09343815
15	0x3cfdc5c3	0.03097809
16	0xbd7f9516	-0.06239804
17	0xbd7e2cb4	-0.06205435
18	0xbd5bc346	-0.053653024
19	0x3d354041	0.04425073
20	0xbd8831d2	-0.066501275
21	0x3d9813c1	0.07425643
22	0x3ddb7ed6	0.107175514
23	0x3d86613e	0.06561516
24	0x3db0721a	0.08615513
25	0x3c22025c	0.009888258
26	0xbdb9a082	-0.090638176
27	0xbde9e29f	-0.11420178
28	0xbd2087f7	-0.039192166
29	0x3dc54960	0.09633136
30	0x3cc4ad3e	0.02400839
31	0x3dae87cd	0.08521996
32	0x3d8dfe27	0.06933241
33	0xbca184ee	-0.019716706
34	0x3dad3190	0.08456719
35	0xbd5a33ad	-0.053271938
36	0xbaa31045	-0.0012440762
37	0x3d2d2770	0.04227394
38	0x3d061925	0.032738823
39	0x3b6abad9	0.0035816936
40	0x3cd89b16	0.026441138
41	0xbde98816	-0.114029095
42	0x3d8f5ba3	0.069999
43	0xba17fdb6	-0.0005797999
44	0x3da61e6c	0.08111271
45	0x3d512094	0.05105646
46	0x3de55550	0.11197913
47	0x3d733547	0.05937698
48	0xbdec19a3	-0.11528327
49	0xbdc5b9af	-0.09654557
50	0x3dd82dd3	0.10555615
51	0x3da9f603	0.08298876
52	0xbc1ba231	-0.009499119
53	0x3d696b64	0.05698718
54	0x3db47ef7	0.08813279
55	0xbcfbf833	-0.030757999
56	0xbd8ba5a5	-0.068187036
57	0xbdeae4dd	-0.114694335
58	0xbc975a8e	-0.018475797
59	0x3cdbb30a	0.02681877
60	0xbbc940e4	-0.006141769
61	0x3d86810a	0.06567581
62	0x3dbef720	0.09324479
63	0xbcb54fd0	-0.022132784
64	0xbd9e4d71	-0.077296145
65	0xbd9f0232	-0.077640906
66	0xbd613654	-0.054983452
67	0x3d542981	0.051797394
68	0xbdc49313	-0.09598365
69	0xbd589aea	-0.052882113
70	0xbc882728	-0.016620234
71	0x3d85b94c	0.06529483
72	0x3d82d302	0.06387903
73	0xbd0fbbeb	-0.035091322
74	0xbdd47615	-0.10374085
75	0xbce0d6a5	-0.0274461
76	0x3dde7e32	0.108639136
77	0xbda4c3c4	-0.08045152
78	0xbdcad0c7	-0.09903102
79	0x3dbcacc1	0.09212638
80	0x3d1273d7	0.035755005
81	0xbdaabfa8	-0.08337337
82	0xbd1364c9	-0.035984788
83	0x3c4620bd	0.012092766
84	0x3da358cd	0.07975922
85	0xbd81b642	-0.06333591
86	0x3d396d0f	0.045270022
87	0x3d247ecd	0.04015999
88	0x3d46a6d8	0.04849896
89	0xbdc6d1f5	-0.09708015
90	0xbca9c608	-0.020724311
91	0x3d9c9483	0.07645514
92	0xbcf5f089	-0.030021923
93	0x3d6e9706	0.058249496
94	0xbd972741	-0.07380534
95	0xbdd14a59	-0.10219259
96	0xbc97ce50	-0.018530995
97	0x3dd95e4f	0.10613691
98	0x3da9b2ad	0.08286033
99	0x3d7fe96f	0.06247848
100	0xbd2742d2	-0.04083521
101	0x3de0a3b4	0.10968724
102	0xbd97d49f	-0.07413601
103	0xbb5ece83	-0.0033997602
104	0x3d802c6f	0.06258475
105	0xbcff4045	-0.031158576
106	0xbd78de9a	-0.060759164
107	0xbd4fce95	-0.05073412
108	0x3d6e7952	0.05822117
109	0xbd713d99	-0.058896635
110	0xbc22a8de	-0.009927956
111	0x3d9a6d33	0.07540359
112	0xbc876cdf	-0.016531406
113	0xbd956d44	-0.072962314
114	0x3b0823dd	0.002077333
115	0xbdbbbf2f	-0.09167325
116	0x3d80445d	0.06263039
117	0xbd5d6ca0	-0.05405867
118	0x3c667a99	0.0140673155
119	0xbbfd683b	-0.0077333725
120	0x3dc08491	0.09400285
121	0xbcd4ef38	-0.025992975
122	0x3d487417	0.048938837
123	0xbd2b5c3e	-0.041836016
124	0xbc4b0452	-0.012391167
125	0xbd4dfe77	-0.050291505
126	0xbdae32e5	-0.08505801
127	0xbd964fd9	-0.073394485
128	0xbd81febe	-0.06347416
129	0x3b475925	0.0030418125
130	0xbc76ae2b	-0.015056173
131	0xbd8058d8	-0.062669456
132	0xbd5e2156	-0.05423101
133	0x3cb99bd7	0.022657318
134	0x3dd186e1	0.10230804
135	0x3db57fd2	0.088622704
136	0xbd0e0492	-0.034672327
137	0xbd4141e9	-0.047181997
138	0xbdcc6034	-0.09979287
139	0x3db6a9a0	0.08919072
140	0xbc8ea4d4	-0.01741258
141	0x3db23c88	0.08702952
142	0xbdd5db9f	-0.1044228
143	0xbc66a06a	-0.014076332
144	0xbde85f7e	-0.11346339
145	0xbdaade5f	-0.08343195
146	0xbddfc474	-0.10926142
147	0xbda82111	-0.08209432
148	0xbda19da8	-0.07891399
149	0x3a96f6e7	0.0011517674
150	0x3bbb2960	0.0057117194
151	0x3cc3206e	0.023819175
152	0xbd9baf64	-0.076018125
153	0x3d038e88	0.03211835
154	0x3de668a3	0.112504266
155	0x3d10d6d9	0.035361145
156	0x3d31592a	0.043297924
157	0xbca3aaaf	-0.01997885
158	0xbd6d4c7a	-0.05793426
159	0xbdb8d81c	-0.090255946
160	0xbde44ce8	-0.11147481
161	0xbdad2c33	-0.08455696
162	0xbd82a632	-0.063793555
163	0xbd9f6d78	-0.077845514
164	0x3d401347	0.046893384
165	0x3d253885	0.040337104
166	0x3d86ef77	0.06588643
167	0xbd74f134	-0.05980034
168	0xbd2b8cc8	-0.041882306
169	0xbcb4b9b4	-0.022061206
170	0xbc4a8ffc	-0.01236343
171	0x3d9f65b0	0.07783067
172	0x3da4a6f9	0.0803966
173	0x3d44e096	0.048065744
174	0x3de539a4	0.11192635
175	0x3d5b45ef	0.05353349
176	0x3d80c6ff	0.062879555
177	0x3d0c960d	0.034322787
178	0x3aa1e396	0.0012351151
179	0x3dc5e2f8	0.096624315
180	0xbd09f166	-0.03367748
181	0x3d5f929f	0.05458319
182	0xbc8ff15a	-0.01757114
183	0xbc7c1fa9	-0.015388408
184	0x3da2ec1f	0.07955193
185	0xbde9568e	-0.11393462
186	0xbc962a76	-0.018330794
187	0xbdd1f9ea	-0.102527454
188	0x3d967a02	0.0734749
189	0x3dbef54d	0.09324131
190	0x3cb8467b	0.022494545
191	0xbd0cf1c0	-0.03441024
192	0xbd6335f9	-0.055471394
193	0x3ddde3b6	0.10834448
194	0xbcd4c692	-0.025973592
195	0x3da365c5	0.079783954
196	0x3d988291	0.074467786
197	0xbde4bdf0	-0.1116904
198	0x3d155b05	0.036463756
199	0x3d4bf182	0.049790867
200	0xbc8a3b36	-0.016873937
201	0x3d9833c2	0.07431747
202	0x3c08789e	0.008329539
203	0xbdcb2d36	-0.09920733
204	0xbd3f0d3f	-0.04664349
205	0x3cf1090f	0.029423265
206	0xb99c995b	-0.00029868897
207	0x3cab923d	0.020943755
208	0xbda2bdbd	-0.07946346
209	0xbdde5087	-0.10855203
210	0xbd49f7cf	-0.049308594
211	0xbd7b75b0	-0.061391532
212	0xbd89da90	-0.067311406
213	0xbd118728	-0.035529286
214	0x3c95a872	0.018268798
215	0x3dea4435	0.11438791
216	0xbd904232	-0.07043876
217	0x3d964153	0.07336678
218	0xbd6da9fe	-0.058023445
219	0xbdc89719	-0.097944446
220	0x3d99fa93	0.07518496
221	0x3da7cc30	0.081932425
222	0x3dc86de9	0.09786589
223	0xbd1fa0f0	-0.03897184
224	0x3de52e77	0.11190503
225	0x3cc08709	0.02350189
226	0x3d4d5bd0	0.050136387
227	0xbd216e63	-0.039411914
228	0xbd9c88e8	-0.076433
229	0xbd9bc072	-0.076050654
230	0xbd361c20	-0.044460416
231	0xbdbf812a	-0.09350808
232	0x3d95806b	0.072998844
233	0x3c8caa6f	0.017171113
234	0xbd69b556	-0.0570577
235	0xbd94d750	-0.0726763
236	0xbd92aa49	-0.071613856
237	0x3d0c6587	0.03427651
238	0x3de0825c	0.10962364
239	0x3d9407c3	0.07228043
240	0x3da5c6ff	0.08094596
241	0x3c71bbfb	0.014754291
242	0xbdbaeacc	-0.09126815
243	0x3d22f265	0.039781947
244	0xbaca65b9	-0.0015441693
245	0x3acc443b	0.0015584299
246	0x3dd38dc4	0.10329774
247	0x3c8017cb	0.015636345
248	0xbd1a96ef	-0.037741598
249	0xb9f4fbf1	-0.00046727018
250	0x3d78edcd	0.06077366
251	0xbb7c973b	-0.0038542289
252	0x3dade973	0.084917925
253	0x3d2509ab	0.040292423
254	0xbc658c0a	-0.014010439
255	0xbd7f6454	-0.06235154

conv1.bias f4 [6]
0	0x3c300234	0.010742713
1	0xbcd79542	-0.026316289
2	0x3d773e85	0.060362358
3	0xbde386dc	-0.11109707
4	0x3ddd5266	0.10806732
5	0x3cda6cfb	0.026663294

conv2.weight f4 [16, 6, 5, 5]
0	0xbd18de17	-0.037321176
1	0xbd9b0399	-0.075690456
2	0xbbe28892	-0.006913253
3	0xbd173332	-0.036914058
4	0xbc58b60c	-0.013226997
5	0x3d9b6db6	0.07589285
6	0x3be3f757	0.0069569754
7	0xbd3697dc	-0.044578418
8	0x3d066103	0.03280736
9	0xbd90e6f4	-0.07075301
10	0x3d909f25	0.070616044
11	0xbda4cef6	-0.08047287
12	0xbc9f90cb	-0.019478222
13	0x3d4ff5be	0.050771467
14	0xbd97f16d	-0.07419095
15	0x3d440ec5	0.047865648
16	0x3d9f1c90	0.0776912
17	0x3ce05106	0.027382385
18	0x3cf7bd36	0.03024159
19	0xbd933df8	-0.07189554
20	0xbd945540	-0.07242823
21	0xbd3f1429	-0.046650086
22	0xbd2c7652	-0.042105027
23	0x3d3b9fb3	0.045806598
24	0xbd642ed0	-0.055708706
25	0xbcd2222f	-0.025651066
26	0x3d7c73a8	0.061633736
27	0xbd7bbc6d	-0.061458994
28	0x3cc17603	0.023615843
29	0x3d87ad32	0.06624831
30	0xbd6d7663	-0.05797423
31	0x3cd38a91	0.02582291
32	0x3d88183e	0.06645249
33	0xbda09b23	-0.0784209
34	0xbca1767d	-0.01970982
35	0xbd142a0e	-0.03617292
36	0x3d53c675	0.051702935
37	0x3da712ff	0.0815792
38	0x3d2bd0eb	0.041947287
39	0xbce6b167	-0.028160764
40	0xbd043761	-0.032279376
41	0x3ceca37f	0.028886555
42	0x3bdbe422	0.006710545
43	0xbd006644	-0.031347528
44	0xbca6a746	-0.020343434
45	0xbd9bb64a	-0.07603128
46	0x3d2330b6	0.039841376
47	0xbda4fe36	-0.080562994
48	0x3d070207	0.032960918
49	0xbc1887a5	-0.009309684
50	0x3d237bd2	0.039913006
51	0xbda246b4	-0.07923642
52	0xbd99b0a5	-0.075043954
53	0xbd51fdda	-0.051267482
54	0x3cfdb8cc	0.030971907
55	0xbd8c34b5	-0.068459906
56	0xbc86b639	-0.016444312
57	0xbd1e0a08	-0.038583785
58	0xbcf88cc4	-0.03034056
59	0xbcc7474d	-0.024325991
60	0x3d514839	0.051094268
61	0x3da39d89	0.07989032
62	0xbd32e3be	-0.043674223
63	0x3d8acff8	0.06777948
64	0xbd3c392b	-0.045952957
65	0xbd849fc3	-0.06475785
66	0xbcb9f86d	-0.022701466
67	0xbd1fd8fe	-0.0390253
68	0x3bbca897	0.005757402
69	0xbd6c2027	-0.05764785
70	0x3d331482	0.04372073
71	0x3d853467	0.065041356
72	0xbda28418	-0.07935351
73	0xbd5134ba	-0.051075675
74	0xbd776f0b	-0.060408633
75	0x3c9c7ddb	0.019102981
76	0xbd8bf4f1	-0.06833828
77	0x3d879139	0.06619496
78	0xbc750fd8	-0.014957391
79	0x3d32517a	0.043534733
80	0xbbf94426	-0.007607001
81	0xbd2210b9	-0.03956673
82	0xbd038ed5	-0.032118637
83	0xbc42a637	-0.011880449
84	0xbd4d203f	-0.05007958
85	0x3bfe9e3b	0.0077703274
86	0xbd21fef2	-0.039549775
87	0x3d7ccdf9	0.06171987
88	0x3d5d6ea0	0.05406058
89	0xbd1008ed	-0.035164762
90	0xbda5aa39	-0.08089108
91	0x3c9c09d0	0.019047648
92	0x3c6a85bb	0.01431411
93	0xbda4d89d	-0.08049128
94	0xbd33c4b5	-0.043888766
95	0x3cb1ad36	0.021689039
96	0xbd123c88	-0.03570226
97	0x3cb7e8de	0.022449907
98	0x3d07d931	0.033166114
99	0x3d84ce6f	0.064846866
100	0xbd4d78eb	-0.050164144
101	0xbd0bbe6c	-0.034117147
102	0x3d972538	0.07380146
103	0x3d35b6a1	0.04436362
104	0x3d754834	0.05988331
105	0xbd1bde8c	-0.038054034
106	0xbd3b873c	-0.045783266
107	0x3d224417	0.039615717
108	0x3c461903	0.012090924
109	0xbda3b5d6	-0.07993667
110	0xbd902f33	-0.070402525
111	0xbd839f68	-0.06426889
112	0x3d92ecc5	0.071740665
113	0xba21c2c0	-0.00061706826
114	0xbae9844a	-0.0017815914
115	0xbd83356a	-0.06406672
116	0xbd4e7b54	-0.050410584
117	0xbd85c4ef	-0.06531703
118	0xbd05ae97	-0.032637205
119	0x3cbb380b	0.022853872
120	0xbcdff6d2	-0.027339373
121	0xbcd38fb6	-0.025825363
122	0x3bb38c5a	0.0054793777
123	0x3d5733dd	0.052539695
124	0xbc6d1bbf	-0.014471947
125	0xbd96465e	-0.0733764
126	0x3d7c9159	0.06166205
127	0xbc9ab43b	-0.018884769
128	0x3d505714	0.050864294
129	0x3d46d332	0.048541255
130	0xbd3c7ca2	-0.046017297
131	0xbd8f6109	-0.0700093
132	0x3d777103	0.06041051
133	0x3ce36e26	0.027762484
134	0x3da11603	0.078655265
135	0x3d93db47	0.07219558
136	0xbd70915f	-0.058732387
137	0x3cf8a7df	0.030353485
138	0xbd40872d	-0.047003914
139	0x3d13fbb3	0.03612871
140	0x3da71cef	0.081598155
141	0x3cb2df6b	0.02183505
142	0xba9cf12f	-0.0011973734
143	0x3d92143c	0.07132766
144	0x3c92f900	0.017940998
145	0xbcd5ee54	-0.02611462
146	0x3d0691cc	0.032853886
147	0xbd7473c5	-0.05968072
148	0x3b4a86b8	0.0030903053
149	0x3d88ee44	0.066860706
150	0x3d341f10	0.043974936
151	0xbd91df1c	-0.07122633
152	0x3d55bcc4	0.052181974
153	0xbd3e39bf	-0.04644179
154	0x3bb0752a	0.005385061
155	0xbcdae8cc	-0.026722334
156	0x3d7baa81	0.061441902
157	0xbd86e7f7	-0.065872125
158	0xbd6c6b58	-0.05771956
159	0xbd4cfdf6	-0.050046884
160	0xbc4255ab	-0.011861245
161	0x3c585fc9	0.013206431
162	0x3cf06f5f	0.02934998
163	0xbd181fb9	-0.037139628
164	0xbda10634	-0.07862511
165	0x3aa5924c	0.0012632101
166	0x3cdc9f7b	0.026931515
167	0xbb282d60	-0.0025661811
168	0xbcf090aa	-0.029365856
169	0x3c6300c2	0.013855161
170	0xbd9da47c	-0.076973885
171	0xbd17e6be	-0.037085287
172	0x3ce0f682	0.027461294
173	0x3d2d3730	0.04228896
174	0x3d9a65f7	0.075389795
175	0x3d48cdcd	0.049024392
176	0xbcacac2b	-0.02107819
177	0xbd505248	-0.05085972
178	0xbd94e925	-0.07271031
179	0xbcf96647	-0.030444277
180	0xbd713d7a	-0.05889652
181	0xbd7d81d0	-0.061891377
182	0x3d84db52	0.064871445
183	0xbda5226b	-0.08063205
184	0x3c76cbd0	0.015063241
185	0xbd89d834	-0.067306906
186	0xbda35520	-0.07975221
187	0x3cee276f	0.029071538
188	0xbcbf9e71	-0.02339098
189	0x3d935eae	0.07195793
190	0x3d6d6de8	0.057966143
191	0x3c307c8e	0.010771884
192	0x3befa269	0.007313062
193	0x3b982dfe	0.0046441546
194	0xbd7e4bc9	-0.062083993
195	0x3cd26a6d	0.025685513
196	0xbd1bfbee	-0.038082056
197	0xbd43f76b	-0.047843378
198	0xbbe35aa8	-0.0069382973
199	0x3d6dadba	0.058027007
200	0xbd357564	-0.044301406
201	0x3c545333	0.012959289
202	0x3d07aed9	0.033125732
203	0x3d1903d3	0.037357163
204	0xbb581cfe	-0.0032976265
205	0xbbfcf0eb	-0.0077191493
206	0x3da365bd	0.079783894
207	0x3bbbba56	0.005729
208	0x3d4d19e8	0.050073534
209	0xbbb28712	-0.0054482305
210	0x3c832c87	0.016012443
211	0xbd55337b	-0.05205105
212	0x3d571f54	0.05252011
213	0x3d7a50b5	0.061112124
214	0xbb3e5c46	-0.0029046698
215	0xbd134a56	-0.035959564
216	0x3d962f4e	0.073332414
217	0xbd97e34b	-0.074163996
218	0x3d9c20fe	0.0762348
219	0xbd9dc128	-0.07702857
220	0xbd6e0085	-0.058105964
221	0x3d88c072	0.06677331
222	0xbd35f473	-0.044422578
223	0xbcd30b9f	-0.025762377
224	0x3d3914e1	0.045185927
225	0x3cd87413	0.026422536
226	0xbd997cb2	-0.07494487
227	0x3bb6a74b	0.005574142
228	0xbcc6213d	-0.024185771
229	0xbbcab919	-0.006186616
230	0x3d355f0a	0.04428009
231	0xbcca12ac	-0.024667107
232	0x3cd22379	0.02565168
233	0x3d9577c9	0.07298238
234	0xbc9546eb	-0.018222293
235	0x3d883c6c	0.066521496
236	0xbd9525fb	-0.07282635
237	0xbc41976d	-0.011815888
238	0xbda46073	-0.08026209
239	0x3d5c7483	0.05382205
240	0xbd851c7a	-0.06499572
241	0x3d8b88fa	0.068132356
242	0xbd299064	-0.041397467
243	0xbd8cc208	-0.06872946
244	0xbd61f256	-0.05516275
245	0xbd0d919f	-0.034562703
246	0x3d861746	0.06547408
247	0x3c17ede6	0.009273028
248	0x3d51c3f9	0.051212285
249	0xbc3e8c7d	-0.011630175
250	0xbc62c57b	-0.013841028
251	0x3d7fb55c	0.062428817
252	0xbd0419d2	-0.032251187
253	0xbd9b401b	-0.075805865
254	0xbc9cb7de	-0.019130643
255	0xbd5ade4b	-0.05343465

conv2.bias f4 [16]
0	0x3cdbddce	0.026839163
1	0xbd3641e2	-0.044496424
2	0x3d887032	0.066620246
3	0xbd30f37f	-0.043200966
4	0xbd7ed52e	-0.062215023
5	0x3cb5de2b	0.022200665
6	0xbd1651be	-0.03669905
7	0xbd0277ce	-0.031852536
8	0x3c5dcc13	0.013537425
9	0x3cdf6996	0.027272027
10	0xbc932dee	-0.017966237
11	0x3d4fd12a	0.050736584
12	0x3d4ad0cc	0.04951553
13	0x3d1b003f	0.03784203
14	0x3d65a751	0.05606777
15	0x3cb594c4	0.022165664

fc1.weight f4 [120, 400]
0	0x3ca60980	0.020268202
1	0x3cb5b337	0.022180183
2	0x3bfb2180	0.0076639056
3	0x3a6f5800	0.00091302395
4	0x3ca189ba	0.019718993
5	0x3c1fdb40	0.009756863
6	0x3d4cb41f	0.049976464
7	0x3c469867	0.0121212965
8	0x3d06c29d	0.03290044
9	0xbd1121d3	-0.035432648
10	0x3c8106c3	0.015750295
11	0xbb18d7e7	-0.0023322047
12	0x3be205e7	0.0068976763
13	0xbd42fd0f	-0.047604617
14	0x3caebb17	0.021329446
15	0xbc2cffc7	-0.010559029
16	0xbb14964d	-0.0022672594
17	0xbcbe89f7	-0.023259146
18	0x3c9e78e7	0.01934476
19	0xbd13a55b	-0.036046367
20	0x3d0b26dd	0.03397261
21	0xbce33207	-0.027733816
22	0x3d2db1a0	0.042405725
23	0xbc7c9487	-0.015416271
24	0x3a6ec0cd	0.0009107709
25	0x3cb9c553	0.0226771
26	0x3c9f2ad3	0.0194296
27	0x3be90627	0.007111329
28	0x3ce0d8d3	0.02744714
29	0x3b17504d	0.0023088634
30	0x3d3ca7cf	0.046058472
31	0x3b06849a	0.0020525814
32	0xbcbd7943	-0.023129111
33	0xbcfcd207	-0.030861868
34	0x3cff130a	0.031137008
35	0xbccf97e0	-0.025340974
36	0xbd3a837d	-0.045535553
37	0xbc9204c0	-0.01782453
38	0xbd0b66a0	-0.034033418
39	0xbcbab68d	-0.022792125
40	0x3d38c6a2	0.045111306
41	0xbc92ead0	-0.017934233
42	0x3d3ab562	0.045583136
43	0x3d0773eb	0.033069532
44	0xbd12d63a	-0.035848834
45	0x3cd5a417	0.02607922
46	0xbc810880	-0.015751123
47	0xbb7cb633	-0.0038560748
48	0xbc25bded	-0.010116083
49	0x3d2def17	0.042464342
50	0xbd116250	-0.03549415
51	0xbcfca160	-0.030838668
52	0xba80c79a	-0.0009825111
53	0xbd2adf40	-0.041716814
54	0xbc5652e7	-0.013081289
55	0x3c77fbe7	0.015135742
56	0xbbf1d7b3	-0.0073804497
57	0x3c35b640	0.011090815
58	0xbbf3795a	-0.0074302377
59	0xbc86a0a7	-0.016434027
60	0xbc8f3d9d	-0.017485434
61	0xbc116e87	-0.008876449
62	0xbd081df5	-0.033231694
63	0x3cc1cc07	0.023656858
64	0x3c78097a	0.015138978
65	0x3c2ccdad	0.010547084
66	0x3c2f9ca7	0.010718501
67	0xbcba188d	-0.022716785
68	0x3d14a6ab	0.03629176
69	0xbd33f38f	-0.043933447
70	0xbd030bca	-0.031993665
71	0xbca6492a	-0.02029856
72	0xbc44db60	-0.012015194
73	0xbd4767f8	-0.048683137
74	0xbcc3c11a	-0.023895789
75	0x3c332cad	0.0109359445
76	0x3d2cd493	0.042194914
77	0x3d4abfb8	0.049499243
78	0xbce47020	-0.027885497
79	0xbd03d640	-0.032186747
80	0x3c8485d3	0.016177094
81	0xbd265737	-0.04061052
82	0xbc4463a7	-0.01198665
83	0x3cbb99c0	0.022900462
84	0xbbd5bfcd	-0.0065231086
85	0xbd0dfabf	-0.03466296
86	0x3d37dceb	0.04488842
87	0xbcbd30f0	-0.023094624
88	0x3ca7fdb7	0.020506723
89	0xbcdc5ff7	-0.026901228
90	0x3d0016bb	0.031271677
91	0x3c92157d	0.017832512
92	0xbd36f240	-0.04466462
93	0xbc00cc20	-0.007861167
94	0x3cb19920	0.021679461
95	0x3b91790d	0.004439479
96	0xbce881d7	-0.028382225
97	0xbd174295	-0.036928732
98	0xbb8d241a	-0.004307282
99	0xbc06aced	-0.00821994
100	0x3c69c9c0	0.014269292
101	0x3d204d87	0.039136436
102	0xbc27498d	-0.010210407
103	0xbd1ba983	-0.038003456
104	0xbbce6333	-0.0062984466
105	0xbc7f6900	-0.015588999
106	0xbb51e9cd	-0.0032030225
107	0x3d25fc2d	0.040523697
108	0x3c732007	0.014839179
109	0x3a839a00	0.0010040402
110	0x3aed359a	0.001809764
111	0x3c1d8de0	0.009616345
112	0x3ae90ecd	0.00177809
113	0x3b6acb1a	0.0035826624
114	0xbc5cb513	-0.013470906
115	0x3cff8e3d	0.031195754
116	0x3ce36e57	0.027762575
117	0xbbac058d	-0.005249685
118	0xbb842980	-0.0040332675
119	0x3d340090	0.04394585
120	0x3c5a2413	0.013314265
121	0x3d0aa023	0.033844125
122	0xbb1ef800	-0.0024256706
123	0xbb50acb3	-0.0031841218
124	0xbb051e4d	-0.002031225
125	0xbd12012f	-0.03564566
126	0xbd179487	-0.03700688
127	0xbd040b7a	-0.032237507
128	0xbcb53003	-0.02211762
129	0x3be1815a	0.006881875
130	0xbd4488f5	-0.047982175
131	0x3d1eccba	0.03876946
132	0x3d067123	0.03282274
133	0xbcc0b330	-0.023522943
134	0xbd2f0c72	-0.04273648
135	0x3d0e01e2	0.034669764
136	0xbd1229d2	-0.035684414
137	0xbc81b2d3	-0.01583234
138	0xbce43170	-0.027855605
139	0x3d3b6198	0.04574737
140	0x3c8a842d	0.01690873
141	0xbd21b190	-0.039475977
142	0xbccce20a	-0.025010128
143	0xbc94c89d	-0.018162066
144	0xbd4a8b3f	-0.0494492
145	0x3cc62ff0	0.02419278
146	0x3ce48fea	0.027900655
147	0x3cb8e92d	0.022572124
148	0x3cf7110a	0.030159492
149	0xbd22b79b	-0.03972588
150	0xbc31cf67	-0.010852671
151	0xbccbabdd	-0.024862224
152	0xbcb55b4d	-0.022138262
153	0x3c26e833	0.010187197
154	0xbcc5bd5a	-0.024138141
155	0x3d185302	0.037188537
156	0xbbdf160d	-0.0068080486
157	0xbb8b3f67	-0.0042495015
158	0xbd334cd3	-0.043774437
159	0xbcf418b3	-0.029796934
160	0xbd33f293	-0.04393251
161	0x3c9b9c67	0.018995477
162	0xbd1310f7	-0.03590485
163	0xbcff0260	-0.031129062
164	0x3bc7a7cd	0.0060930015
165	0x3d3764c8	0.044773847
166	0xbd1c393d	-0.038140524
167	0xbcc33267	-0.023827745
168	0xbd105110	-0.035233557
169	0xbb6d28cd	-0.003618765
170	0xbca840b3	-0.020538663
171	0x3b27849a	0.0025561214
172	0xbce52d9a	-0.027975846
173	0x3c9274ed	0.01787802
174	0x3d1aeb77	0.037822213
175	0x3ba2d767	0.0049695256
176	0x3c65bf6d	0.01402269
177	0x3c2e82e7	0.010651327
178	0x3d36a9dd	0.044595588
179	0xbcae3ff3	-0.021270728
180	0x3ce5e43a	0.028062928
181	0xbbdb551a	-0.0066934945
182	0x3c90b773	0.0176656
183	0xbd406fcf	-0.04698163
184	0x3d12a358	0.035800308
185	0xbc462c80	-0.012095571
186	0x3c7226f3	0.014779794
187	0xbcb2b413	-0.021814382
188	0xbb15a980	-0.0022836626
189	0xbc94ffaa	-0.018188316
190	0xbc4083da	-0.011750186
191	0x3d0b7bc7	0.03405359
192	0x3d2fc73d	0.042914618
193	0x3c302260	0.010750383
194	0xbcc7db73	-0.024396634
195	0xbd021158	-0.03175482
196	0x3d3669ed	0.044534612
197	0x3cd2c943	0.025730735
198	0xbd44ca87	-0.048044708
199	0xbcf5c737	-0.03000222
200	0xbd3f18db	-0.046654563
201	0xbd468422	-0.048465855
202	0x3d30c945	0.043160696
203	0xbc6a0bf3	-0.0142850755
204	0x3d2decff	0.042462345
205	0x3a5deccd	0.0008465767
206	0x3d1eb617	0.038747873
207	0x3cfe8bc7	0.03107251
208	0x3d499c88	0.049221545
209	0xbc10621a	-0.008812452
210	0xbc523093	-0.012828964
211	0xbcd6110a	-0.026131172
212	0x3b3e5280	0.0029040873
213	0x3c308713	0.010774392
214	0x3d30ce17	0.043165293
215	0x3c4a1827	0.01233486
216	0x3d4a1102	0.049332626
217	0xbd47736d	-0.048694063
218	0xbca0a373	-0.019609189
219	0x3c8b9ef3	0.017043566
220	0x3cadf6f0	0.021235913
221	0xbd1ef99a	-0.038812257
222	0xbd0dcc93	-0.034618925
223	0x3ce9e213	0.028550183
224	0xbcae08f7	-0.02124451
225	0x3d30628b	0.043062728
226	0x3d2c9973	0.042138528
227	0x3c978bd0	0.018499285
228	0x3d0d2995	0.034463484
229	0x3c671ac7	0.014105505
230	0x3d3f2ba7	0.04667249
231	0xbc8368b0	-0.01604113
232	0xbd1d83e5	-0.038455863
233	0x3c8ec0fa	0.017426003
234	0x3ca341c0	0.019928813
235	0xbd2c131d	-0.042010415
236	0xbd0b707f	-0.03404283
237	0xbd28eac3	-0.04123951
238	0xb976c4cd	-0.00023533702
239	0xbca5a050	-0.020218045
240	0x3c0df420	0.008664161
241	0xbc130d53	-0.008975345
242	0xbc07cd4d	-0.008288694
243	0x3bc3229a	0.0059550526
244	0xbd2a9b5b	-0.041652065
245	0xbc012e73	-0.0078846095
246	0x3cd9e670	0.026599139
247	0xbd1742cf	-0.036928948
248	0x3d391cf3	0.045193624
249	0xbd0548e2	-0.03254021
250	0xbd37637f	-0.04477262
251	0xbab1d5cd	-0.0013567746
252	0x3cf7cae7	0.030248119
253	0xbcd1f150	-0.025627762
254	0x3d2f48ca	0.042794026
255	0x3cf01640	0.029307485

fc1.bias f4 [120]
0	0xbc7be4da	-0.015374387
1	0xbcdef84a	-0.027218003
2	0xbcaf91f7	-0.021431906
3	0xbc6ff3e0	-0.014645547
4	0x3c0812a7	0.008305228
5	0xbd4a3ada	-0.04937253
6	0xbc75a213	-0.014992255
7	0xbd176103	-0.036957752
8	0x3c2eff87	0.01068104
9	0xbd36b77f	-0.04460859
10	0x3ca8dcca	0.020613093
11	0xbd155997	-0.036462393
12	0x3c85520a	0.01627447
13	0x3cd283aa	0.025697548
14	0x3c9ae033	0.018905735
15	0xbbadbef3	-0.005302304
16	0x3b3abd9a	0.002849436
17	0x3d31526b	0.04329149
18	0xbcd9db23	-0.02659375
19	0xbd34c43b	-0.044132452
20	0xbc5f7380	-0.013638377
21	0x3d0458b3	0.032311153
22	0x3d3def62	0.04637087
23	0x3c5da6da	0.01352855
24	0x3c9ed41d	0.019388253
25	0xbbdc58b3	-0.006724441
26	0xbcb8011a	-0.022461463
27	0x3cf30fb3	0.029670572
28	0xbce85ab3	-0.028363561
29	0xbd3a99c0	-0.045556784
30	0xbcd3a660	-0.02583617
31	0xbd47a5d5	-0.048742134
32	0x3c363eda	0.011123383
33	0x3cc4dc70	0.024030894
34	0xbd29d098	-0.041458696
35	0xbcc75ab7	-0.024335248
36	0xbd387618	-0.045034498
37	0xbcf3e927	-0.029774262
38	0x3cd7333a	0.026269544
39	0x3d35b3b3	0.044360828
40	0x3bcce727	0.0062531414
41	0xbd48f0a0	-0.049057603
42	0x3d4054b7	0.04695579
43	0xbd0c7fb2	-0.034301467
44	0x3d1ccbab	0.03828017
45	0xbd2c95a3	-0.042134892
46	0x3d07b65b	0.033132892
47	0x3cc94c97	0.024572654
48	0xbd4a4fbf	-0.049392458
49	0x3d30ddc0	0.043180227
50	0xbc051893	-0.008123535
51	0xbd191be2	-0.037380107
52	0x3ad70a9a	0.0016406358
53	0xbc894db0	-0.016760677
54	0xbd3f99cf	-0.046777543
55	0x3c9ec6da	0.01938193
56	0xbcaa5923	-0.020794457
57	0x3d0570a2	0.03257812
58	0x3c282f33	0.010265159
59	0x3b99a673	0.0046890317
60	0x3c891a63	0.016736215
61	0xbcc48027	-0.023986889
62	0x370fcccd	8.571148e-06
63	0xbcb14b7d	-0.02164244
64	0xbc3556ad	-0.011068028
65	0x3c571300	0.013127089
66	0xbc24dcad	-0.010062379
67	0x3c69ba67	0.014265633
68	0x3d2844ba	0.041081168
69	0xbc974f2d	-0.018470371
70	0x3cc18283	0.023621803
71	0xbba3c91a	-0.0049983384
72	0xbba8969a	-0.005144906
73	0x3cb651e0	0.022255838
74	0xbcfb1e0a	-0.030653972
75	0xbbf20d33	-0.0073868274
76	0x3c393227	0.011303461
77	0xbd187c9f	-0.037228223
78	0xbc344067	-0.011001683
79	0x3d09aeba	0.033613898
80	0x3d3dbfb5	0.046325404
81	0xbd292705	-0.041296978
82	0xbb637280	-0.0034705698
83	0xbb62d71a	-0.0034613074
84	0xbd15c6fb	-0.036566716
85	0xbcd5b1bd	-0.026085729
86	0x3d1f1e77	0.038847413
87	0x3cc5bb6d	0.024137223
88	0x3cd11bd7	0.02552597
89	0x3d0a3750	0.033744156
90	0xbc4e9720	-0.012609273
91	0xbaf0c200	-0.0018368363
92	0x3cd3ab7d	0.025838608
93	0xbd44026b	-0.04785387
94	0xbc56fbba	-0.01312154
95	0xbd28bf3f	-0.04119801
96	0x3c205f3a	0.009788329
97	0xb9e2f733	-0.00043290257
98	0xbc218087	-0.009857303
99	0xbd35081f	-0.044197198
100	0xbc566fad	-0.013088149
101	0x3cd2496a	0.025669772
102	0x3cfe5c60	0.031049907
103	0x3d0c30f5	0.034226377
104	0xbd38cf23	-0.045119416
105	0xbc11e12d	-0.008903784
106	0xbd1d4932	-0.038399883
107	0x3d32199f	0.043481465
108	0x3d02ff6b	0.031981867
109	0x3d13f9fd	0.03612708
110	0xbd1e71a2	-0.038682587
111	0x3d390367	0.04516926
112	0xbcabaefa	-0.020957459
113	0x3c4aaa4d	0.012369704
114	0x3d248f1a	0.040175535
115	0x3d1c6a23	0.038187157
116	0xbcb26b60	-0.021779716
117	0xbc343713	-0.010999459
118	0xbc4226e0	-0.011850089
119	0x3bf95573	0.0076090633

fc2.weight f4 [84, 120]
0	0xbd8b0587	-0.06788164
1	0x3d830384	0.06397155
2	0x3d11a1cc	0.035554692
3	0x3da0fa73	0.078602694
4	0xbd20f900	-0.039299965
5	0x3d3a3f7d	0.045470703
6	0xbd651c87	-0.05593541
7	0x3d479187	0.04872277
8	0xbd9272f2	-0.0715083
9	0x3d94ab6e	0.0725926
10	0xbd92c092	-0.07165636
11	0x3d13e9eb	0.036111753
12	0x3d9e890f	0.077409856
13	0xbd4b7122	-0.04966844
14	0x3d49368b	0.04912428
15	0xbd8b6fb9	-0.06808419
16	0xbd689d92	-0.056790896
17	0xbdb48f84	-0.08816436
18	0x3d807898	0.062730014
19	0x3d852724	0.06501606
20	0x3d7bb134	0.06144829
21	0xbd81149c	-0.06302759
22	0x3d4f6452	0.050632782
23	0x3da84df9	0.08217997
24	0x3d3d479c	0.04621087
25	0xbd3baf9d	-0.045821775
26	0x39f97125	0.0004757728
27	0x3d3fa5b3	0.046788882
28	0x3d577f2a	0.052611507
29	0x3dabbcb5	0.083856024
30	0x3db3c83b	0.08778425
31	0xbd6cc63e	-0.057806246
32	0x3d0f110b	0.034928363
33	0xbd111b5d	-0.035426486
34	0xbd4f1c6c	-0.050564215
35	0x3d95335f	0.07285189
36	0x3d7c5397	0.061603155
37	0xbd27f51c	-0.04100524
38	0x3d8af627	0.06785231
39	0xbc9907b2	-0.018680427
40	0xbd1058c9	-0.035240922
41	0xbd92255c	-0.07136032
42	0x3c88d8d0	0.016704947
43	0xbcc5b1d6	-0.02413265
44	0x3d35dbdc	0.044399127
45	0xbccecdb8	-0.025244579
46	0xbd9e5258	-0.077305496
47	0x3d5f9528	0.054585606
48	0x3c36454e	0.011124922
49	0x3c184bb6	0.009295395
50	0xbd8c791b	-0.068590365
51	0x3d7ec78e	0.06220203
52	0xbd9526b7	-0.07282775
53	0x3d7c700a	0.061630286
54	0xbd348975	-0.0440764
55	0x3d57ba11	0.05266768
56	0x3cef9902	0.029247764
57	0xbd4e2c42	-0.050335176
58	0xbd4e08eb	-0.050301474
59	0x3d5acbba	0.053416945
60	0xbd6dde32	-0.05807323
61	0xbd11ddc9	-0.0356119
62	0xbc84985a	-0.016185928
63	0x3c3abec7	0.011398024
64	0x3d461a48	0.048364908
65	0x3c28920e	0.010288728
66	0xbc7b4bb4	-0.015337873
67	0x3d8c1fb2	0.06841983
68	0x3d9e4b19	0.077291675
69	0x3d9e7000	0.07736206
70	0x39e75c87	0.00044128692
71	0xbd3b0ad1	-0.045664612
72	0x3b4f7e7f	0.003166109
73	0x3d736d9d	0.059430707
74	0x3d9b057e	0.07569407
75	0xbd914205	-0.0709267
76	0xbc905f62	-0.017623607
77	0x3d9d0fb1	0.076690085
78	0x3d1d3c3f	0.038387533
79	0x3d2bd994	0.041955546
80	0x3d3aa1b3	0.045564365
81	0x3d17e0b9	0.037079547
82	0x3d85b470	0.06528556
83	0xbb7977e7	-0.0038065852
84	0x3d90930a	0.070592955
85	0x3cdbf008	0.026847854
86	0xbd165fa4	-0.036712304
87	0x3d418994	0.047250345
88	0x3cb608fd	0.022221083
89	0x3da785d0	0.081798196
90	0xbd34d65b	-0.044149738
91	0xbd9ff860	-0.07811046
92	0x3d1c2ebb	0.038130503
93	0xbdb5f5c0	-0.08884764
94	0xbdb1e178	-0.08685583
95	0x3cf6849d	0.030092532
96	0xbd9d9a4e	-0.07695447
97	0xbd87de24	-0.06634167
98	0xbd535765	-0.051597018
99	0xbd995d02	-0.07488443
100	0xbd92c057	-0.07165592
101	0xbd10b251	-0.035326306
102	0xbd288d69	-0.041150484
103	0x3bf7c3a4	0.007561164
104	0xbd995344	-0.07486585
105	0xbd83ac44	-0.064293414
106	0x3d8b84cf	0.068124406
107	0xbd9436aa	-0.07236989
108	0x3d330796	0.043708406
109	0xbd7221f4	-0.05911441
110	0xbb8a6c76	-0.0042243553
111	0x3ca4a3e9	0.02009769
112	0xbc9d96e4	-0.01923699
113	0x3cc8dac1	0.024518372
114	0xbda04882	-0.0782633
115	0xbd8710ea	-0.06595023
116	0x3da9e28f	0.08295166
117	0x3d25cbe3	0.040477645
118	0x3dacf43e	0.08445023
119	0xbd6814f0	-0.056660593
120	0xbd5f0ef1	-0.05445761
121	0x3d1b6208	0.037935287
122	0xbdab61d2	-0.08368267
123	0xbd9b0b9b	-0.07570573
124	0x3d82ef21	0.063932665
125	0xbcf4a96b	-0.029865941
126	0xbd5f02ea	-0.05444614
127	0x3d5a244f	0.053257283
128	0x3d6315f8	0.055440873
129	0xbd67db1e	-0.05660545
130	0x3ce56179	0.02800058
131	0x3c9e2821	0.019306244
132	0xbdae7488	-0.0851832
133	0x3d8f8366	0.07007484
134	0xbd8a7a20	-0.06761575
135	0xbc793a25	-0.015211617
136	0x3d928b62	0.071554914
137	0xbd0496e1	-0.03237045
138	0x3d6eac64	0.058269873
139	0x376c6efe	1.4092539e-05
140	0x3cfc161c	0.030772261
141	0xbd7a66f3	-0.061133336
142	0xbd4dd2f4	-0.05025001
143	0xbd9811ff	-0.074253075
144	0xbcd32905	-0.025776396
145	0x3cd77060	0.026298702
146	0xbda93138	-0.08261341
147	0xbd045dd9	-0.032316063
148	0x3d464a61	0.048410777
149	0xbd99dec6	-0.07513194
150	0x3d9a49a0	0.07533574
151	0xbc166276	-0.009178748
152	0xbb257593	-0.0025247082
153	0xbd93e5e9	-0.07221586
154	0x3cc5f957	0.024166746
155	0x3c5d2180	0.013496757
156	0xbc9be4a4	-0.019029923
157	0x3d30f23e	0.04319977
158	0xbd7d3139	-0.06181452
159	0xbcefee27	-0.029288365
160	0xbcf04443	-0.029329425
161	0x3c7e21b5	0.015510966
162	0xbb8f3e93	-0.004371473
163	0x3d73c17b	0.05951069
164	0xbd9d83e0	-0.07691169
165	0xbd633bf8	-0.055477113
166	0xbcc92f8a	-0.024558801
167	0xbdac5333	-0.084143065
168	0x3d02f7a6	0.031974457
169	0x3d260d3d	0.04053997
170	0xbc0b678c	-0.008508574
171	0xbb5e3215	-0.0033904363
172	0x3db7a263	0.0896652
173	0x3db0b9fe	0.08629225
174	0x3d0964d0	0.033543408
175	0xbdae983e	-0.08525132
176	0xbd2835d8	-0.041066974
177	0x3d207d43	0.03918196
178	0xbda53b44	-0.08067945
179	0x3d5299f6	0.05141636
180	0x3d8dd6f8	0.06925768
181	0xbd451236	-0.04811307
182	0xbc74fbbd	-0.014952597
183	0xbcc85ee7	-0.024459315
184	0x3cc08d40	0.023504853
185	0xbd91f4e7	-0.071267895
186	0x3cfa9a38	0.030591115
187	0xbd377f6d	-0.044799257
188	0xbd9e99d8	-0.07744187
189	0xbd69791e	-0.057000272
190	0x3d079e5a	0.03311
191	0x3d5078f5	0.050896604
192	0x3c39877d	0.011323807
193	0x3d675507	0.056477573
194	0xbdaeea08	-0.08540732
195	0xbd894af3	-0.067037486
196	0x3d5b8851	0.0535968
197	0x3d015e43	0.031584036
198	0xbbbd829e	-0.005783393
199	0xbbc24379	-0.0059284535
200	0x3d722abe	0.059122793
201	0x3c0f0426	0.008729016
202	0xbdb91d62	-0.090388075
203	0x3cf2e535	0.02965031
204	0x3d87a82c	0.06623873
205	0xbd4ea55c	-0.050450668
206	0xbdb15fbd	-0.08660839
207	0xbdade5db	-0.08491107
208	0xbd9b423a	-0.07580991
209	0x3c94f206	0.018181812
210	0x3d4391e7	0.047746565
211	0x3c4b56e9	0.012410858
212	0x3cf1929a	0.02948885
213	0x3bd87e96	0.006606887
214	0x3d518268	0.051149756
215	0xbd760f55	-0.060073216
216	0xbdb0c7be	-0.08631848
217	0xbd21961e	-0.039449804
218	0x3d88fc4a	0.06688745
219	0xbc9e1481	-0.019296886
220	0xbd1826c4	-0.037146345
221	0xbd86f569	-0.06589777
222	0x3db8f923	0.09031894
223	0x3d96e43e	0.073677525
224	0x3a953ba6	0.0011385574
225	0x3d662386	0.05618622
226	0x3d421080	0.047379017
227	0xbc8ddc78	-0.017317042
228	0xbdb80da9	-0.089869805
229	0xbd8d08f1	-0.06886471
230	0xbcf36c50	-0.029714733
231	0x3d55c6d1	0.05219156
232	0x3cea5e54	0.028609432
233	0xbd95c7ed	-0.073135234
234	0x3cac514d	0.021034861
235	0xbd3d5e83	-0.04623271
236	0x3c50253c	0.01270419
237	0xbd0c3bad	-0.0342366
238	0x3da0e4d1	0.07856143
239	0x3d811b27	0.06304007
240	0x3d809f25	0.062803544
241	0xbd0de247	-0.034639623
242	0x3c14f6c6	0.0090920385
243	0x3d8b14cc	0.06791076
244	0xbda2d04b	-0.07949885
245	0xbc3c7df2	-0.011504637
246	0xbd0c65da	-0.03427682
247	0xbcc8a8a3	-0.024494475
248	0xbd400934	-0.046883777
249	0x3cb6b961	0.022305192
250	0xbd849b96	-0.06474988
251	0xbd68acf7	-0.056805577
252	0xbd9a9eba	-0.07549806
253	0x3d3cffd3	0.04614241
254	0xbdaa86a8	-0.08326465
255	0x3b395fc7	0.0028285848

fc2.bias f4 [84]
0	0xbc8fd78c	-0.017558835
1	0xbd986e9a	-0.074429706
2	0x3c99fc81	0.018797161
3	0x3db98f6c	0.09060559
4	0xbd63c073	-0.055603456
5	0x3d16e133	0.03683586
6	0x3daed1d1	0.08536113
7	0x3cc26b92	0.023732934
8	0x3c9ebe4c	0.01937785
9	0x3b848e3e	0.004045277
10	0xbcb97a9e	-0.022641476
11	0x3d566bcc	0.052348897
12	0x3d9851b4	0.07437459
13	0xbd9e11ce	-0.0771824
14	0x3be0f0e7	0.0068646553
15	0x3db9ad0a	0.09066208
16	0x3c518a94	0.012789387
17	0xbd850e93	-0.064969204
18	0x3d7a1a16	0.061060034
19	0x3d9b1c74	0.075737864
20	0xbdb13383	-0.08652403
21	0x3dba5a7f	0.09099292
22	0x3bed1d71	0.0072361757
23	0xbc94c984	-0.018162496
24	0x3d83d84e	0.06437741
25	0xbd490add	-0.049082626
26	0x3da773eb	0.081764065
27	0xbd6d894f	-0.057992276
28	0x3d3aba3f	0.045587774
29	0xbdbae6cb	-0.091260515
30	0x3d3712df	0.04469573
31	0x3d74f3cc	0.059802815
32	0xbd878973	-0.06618013
33	0xbd021014	-0.031753615
34	0x3b7a9287	0.003823431
35	0x3cd6623c	0.026169889
36	0x3db6e0d2	0.089296
37	0xbd83992c	-0.064256996
38	0x3bc6543d	0.0060525225
39	0xbb67f0f5	-0.0035391424
40	0xbdb852be	-0.09000157
41	0xbd4715fc	-0.04860495
42	0xbb007fda	-0.0019607455
43	0xbd6ff8c4	-0.05858685
44	0xbd8b5ed0	-0.068051934
45	0xba32e373	-0.00068240537
46	0xbd8b0d81	-0.06789685
47	0x3d57bcee	0.05267041
48	0xbd567a72	-0.052362867
49	0xbcab5631	-0.020915123
50	0xbac2bb26	-0.00148568
51	0xbccb9696	-0.024852078
52	0xbd8ff3eb	-0.070289455
53	0xbd262a21	-0.04056752
54	0xbd126f54	-0.035750702
55	0xbcaf7622	-0.021418635
56	0xbd97e0e8	-0.07415944
57	0x3bba5aba	0.005687085
58	0x3c9138c8	0.01772727
59	0xbcd33c2b	-0.025785526
60	0xbbc9d4c5	-0.0061593973
61	0xbd30c78d	-0.043159056
62	0xbd89db3c	-0.06731269
63	0x3c33b802	0.010969164
64	0xbd05cb14	-0.032664374
65	0x3d80689a	0.06269951
66	0x3bb8b7b8	0.0056371354
67	0xbdaef246	-0.08542304
68	0xbd1540cb	-0.036438745
69	0x3cc30ffb	0.023811331
70	0x3c8a1a1f	0.016858159
71	0xbc84de9f	-0.016219435
72	0x3b284bdb	0.002567998
73	0x3da0914d	0.07840214
74	0xbd107802	-0.0352707
75	0x3d31940c	0.04335408
76	0x3d5d5831	0.054039184
77	0x3cd539c7	0.026028527
78	0x3d8d65c9	0.069041796
79	0xbacb85ed	-0.0015527584
80	0x3d26d6be	0.040732138
81	0xba1d583f	-0.00060022244
82	0xbd4a58bf	-0.04940104
83	0x3d6f8281	0.058474068

fc3.weight f4 [10, 84]
0	0x3d121374	0.035663083
1	0x3bb768a3	0.0055971905
2	0x3ddf51e6	0.10904293
3	0x3d4306f5	0.047614057
4	0x3dc83f57	0.09777706
5	0xbd24daeb	-0.04024784
6	0xbc1ea222	-0.00968221
7	0xbdcd3177	-0.100192
8	0xbd37a5d8	-0.044835895
9	0xbdd2683d	-0.10273788
10	0x3cfb715e	0.030693706
11	0xbd905399	-0.07047195
12	0xbddc4a95	-0.10756413
13	0x3dccfd5a	0.100092605
14	0x3d691608	0.056905776
15	0x3c80ec11	0.015737565
16	0xbdbca925	-0.09211949
17	0x3dc6f26a	0.097142056
18	0xbddf3586	-0.10898881
19	0x3cc18f8e	0.023628023
20	0xbda8cb3e	-0.0824189
21	0x3d771707	0.060324695
22	0x3d08b616	0.033376776
23	0xbcaee718	-0.021350428
24	0xbd8a53f5	-0.06754295
25	0xbdd9be9e	-0.106320605
26	0x3dbaa340	0.09113169
27	0x3d87c00c	0.06628427
28	0x3c72e5ca	0.014825294
29	0xbcad78bc	-0.021175735
30	0x3c1dd689	0.009633669
31	0x3d6a2d3b	0.05717204
32	0xbdc88a32	-0.09791984
33	0xbd9c0ad7	-0.07619255
34	0xbd396c42	-0.04526926
35	0x3c530747	0.012880153
36	0x3d969032	0.07351722
37	0x3d7ad6f4	0.06124015
38	0x3c84b966	0.016201686
39	0xbd28d379	-0.0412173
40	0xbddd6ea6	-0.1081212
41	0x3cb71ad7	0.022351665
42	0x3b8c1c5e	0.0042758426
43	0x3d927abe	0.071523175
44	0xbda041c5	-0.078250445
45	0x3d508bcd	0.050914574
46	0x3dd4d641	0.10392428
47	0xbd8311ef	-0.06399905
48	0x3d8a8d6e	0.06765257
49	0xbcc3a0d1	-0.023880394
50	0xbcbcdc93	-0.023054397
51	0xbd85904f	-0.06521665
52	0x3cc268af	0.023731558
53	0x3d86dfbf	0.06585645
54	0xbdc0080f	-0.09376537
55	0x3d06bcb8	0.03289482
56	0x3d6b9562	0.05751551
57	0x3d9a4203	0.07532122
58	0xbd74ac87	-0.059734847
59	0x3dcfa925	0.10139684
60	0x3dd1fb57	0.102530174
61	0xbd9d6880	-0.076859474
62	0xbdaa577e	-0.08317469
63	0x3c11f645	0.008908813
64	0x3d24490a	0.040108718
65	0x3d503501	0.0508318
66	0xbc452720	-0.012033254
67	0x3d72ad2d	0.059247185
68	0xbcad51f2	-0.021157239
69	0x3db00cfa	0.08596225
70	0xbda09bc9	-0.07842214
71	0xbd9b6cba	-0.07589097
72	0x3d824d2a	0.06362374
73	0xbc9346ca	-0.01797809
74	0xbd6fa911	-0.058510844
75	0x3db1b7a6	0.08677606
76	0x3daa3dfd	0.083126046
77	0xbcd0664b	-0.025439402
78	0xbcac055a	-0.020998646
79	0xbd2200d4	-0.03955157
80	0xbd78dd43	-0.060757887
81	0x3da5433c	0.080694646
82	0xbca1ec43	-0.019765979
83	0x3ce642f4	0.028108098
84	0x3d25e82f	0.04050463
85	0xbd3b9c8f	-0.045803603
86	0xbca193b1	-0.019723745
87	0x3d4f254b	0.050572675
88	0xbdd95631	-0.10612143
89	0x3ca2354f	0.01980081
90	0xbd5c6930	-0.053811252
91	0xbdae7c17	-0.08519762
92	0xbd717664	-0.058950797
93	0xbd8ba192	-0.068179265
94	0xbdaeee7e	-0.085415825
95	0xbbb48588	-0.005509082
96	0x3dd8b45d	0.105812766
97	0x3cd76637	0.026293857
98	0x3dc39988	0.09550768
99	0xb81bf8a3	-3.718644e-05
100	0xbd99a8d8	-0.075029075
101	0x3dc0623d	0.093937375
102	0x3d1c7168	0.03819409
103	0xbd4e41e9	-0.050355826
104	0xb7de2554	-2.6481845e-05
105	0xbcd58813	-0.026065862
106	0xbd1f7cad	-0.03893726
107	0xbcc850c5	-0.024452576
108	0x3d99171c	0.07475111
109	0xbd9c1ea6	-0.07623033
110	0xbd499a78	-0.04921958
111	0x3dbf7a44	0.09349492
112	0x3d6e0b3b	0.05811618
113	0xbd833985	-0.06407455
114	0xbd40af95	-0.047042448
115	0xbda3917c	-0.07986733
116	0x3dbae47c	0.09125611
117	0x3d1123e8	0.035434633
118	0xbd19ade4	-0.03751935
119	0x3d31110e	0.043229155
120	0xbdd42b15	-0.1035978
121	0x3db7f887	0.0898295
122	0xbd9115d1	-0.07084239
123	0xbd24a99a	-0.040200807
124	0x3db1a19a	0.08673401
125	0xbd810bf2	-0.063011065
126	0x3d25a657	0.040441837
127	0x3b0a97d4	0.0021147626
128	0x3db24c2b	0.08705934
129	0xbd44b3c9	-0.04802302
130	0xbce0b71f	-0.027431069
131	0x3d7a1b81	0.061061386
132	0xbddc7c6e	-0.107659206
133	0xbd92c744	-0.07166913
134	0x3db385bd	0.08765743
135	0x3d851b4a	0.064993456
136	0xbd6a1619	-0.05714998
137	0x3d1d17d0	0.038352787
138	0xbc0e0256	-0.008667549
139	0xbd0e91d4	-0.03480704
140	0xbd3517b2	-0.04421205
141	0xbcaac621	-0.020846428
142	0xbdcf4c38	-0.101219594
143	0xbd238628	-0.039922863
144	0x3d632d55	0.055463154
145	0x3c385ae9	0.011252143
146	0xbda35119	-0.079744525
147	0x3db89ab3	0.090138815
148	0x3ddeb58d	0.10874472
149	0xbdcf9113	-0.101350926
150	0x3d0c93f7	0.034320798
151	0x3d384d15	0.044995386
152	0xbc40c686	-0.011766082
153	0xbdd25310	-0.10269749
154	0x3c9b343e	0.01894581
155	0x3d4a6839	0.0494158
156	0xbd63f455	-0.055652935
157	0xbd3a0952	-0.045419045
158	0x3d7bf0b3	0.061508846
159	0x3c9c73c4	0.01909817
160	0x3abc95a7	0.0014387862
161	0xbdab9ed8	-0.083799064
162	0x3d46b495	0.04851206
163	0xbdd4bf96	-0.103881046
164	0xbd9f08ff	-0.07765388
165	0x3cdce47f	0.026964424
166	0x3d87eb09	0.06636626
167	0xbd8e8f8f	-0.069609754
168	0xbdac6302	-0.08417322
169	0x3db6e520	0.08930421
170	0x3d28fd19	0.041256998
171	0xbddef3c2	-0.10886337
172	0xbb188970	-0.0023275279
173	0xbc080f81	-0.008304478
174	0xbddc9810	-0.10771191
175	0xbdab6c4d	-0.08370266
176	0x3c94220b	0.01808264
177	0xbdaf4277	-0.08557599
178	0x3d9f39b1	0.07774676
179	0x3d930087	0.07177835
180	0x3c6068ea	0.013696888
181	0x3d81d005	0.06338505
182	0x3dd6b7bb	0.104842626
183	0x3dc9650c	0.09833726
184	0xbdbc842f	-0.092048995
185	0xbddd6dba	-0.10811944
186	0x3db8a603	0.09016039
187	0xbdd199fb	-0.102344476
188	0xbd1c6bb8	-0.038188666
189	0x3d3c15b9	0.045919154
190	0xbbc9c50c	-0.006157523
191	0x3cdfda4f	0.027325777
192	0xbdcf5b7b	-0.101248704
193	0xbd8e018e	-0.0693389
194	0x3d3f6039	0.046722624
195	0xbb89f287	-0.0042098197
196	0x3bafa6a2	0.0053604404
197	0x3d576dc9	0.052594934
198	0xbd4b2184	-0.04959251
199	0x3d426964	0.04746379
200	0x3d0ac9f0	0.03388399
201	0x3dc4218b	0.0957671
202	0x3d62d8bc	0.055382475
203	0x3d8f577b	0.069991075
204	0x3c3eb741	0.011640371
205	0x3dd8000e	0.105468854
206	0xbca13cc3	-0.019682294
207	0xbd87156f	-0.06595885
208	0x3bc9eddb	0.006162388
209	0x3dd617b7	0.10453742
210	0xbd9adbae	-0.07561432
211	0x3d56e73a	0.05246661
212	0x3ccd307c	0.025047533
213	0x3c9ad13a	0.018898595
214	0x3d13d9c2	0.036096342
215	0xbd96d2de	-0.073644385
216	0x3c1e3206	0.009655481
217	0x3bced480	0.006311953
218	0xbdda4bed	-0.10659013
219	0xbc94d44c	-0.018167637
220	0xbd6530ab	-0.055954617
221	0x3d8763c8	0.06610829
222	0x3da1d1b3	0.07901325
223	0x3cad3a30	0.02114591
224	0xbd5ebe8c	-0.05438094
225	0xbd8a16f3	-0.067426585
226	0x3d03bf02	0.03216458
227	0xbd92eb8f	-0.071738355
228	0x3dcfc64c	0.10145244
229	0xbd52e787	-0.051490333
230	0x3d54d588	0.05196145
231	0xbdcd9d7a	-0.10039802
232	0x3dbfa322	0.09357287
233	0x3c726fa0	0.014797121
234	0xbc5eab19	-0.013590598
235	0xbc8792cb	-0.016549489
236	0xbb24fb33	-0.002517414
237	0xbcc59143	-0.024117118
238	0xbc14c188	-0.009079345
239	0x3dbb3aa9	0.09142048
240	0x3dab9c10	0.08379376
241	0x3c22752b	0.00991563
242	0x3d473282	0.048632152
243	0xbb2275ee	-0.002478953
244	0xbd8810c9	-0.066438265
245	0x3bda1e08	0.006656412
246	0x3dcc42a6	0.0997365
247	0xbdd6188a	-0.10453899
248	0x3cb267d5	0.021778027
249	0xbdd2f368	-0.10300332
250	0x3d5230e8	0.051316172
251	0xbd87751c	-0.06614134
252	0xbce13f12	-0.027495895
253	0x3dbb7b38	0.091543615
254	0xbc482e9e	-0.012218146
255	0x3d9c5b55	0.07634608

fc3.bias f4 [10]
0	0x3d0251a5	0.031816144
1	0xbd0c77de	-0.034294
2	0xbdd7708e	-0.10519515
3	0x3d391ca2	0.045193322
4	0x3d8480ee	0.06469904
5	0x3d3d605a	0.046234466
6	0x3dba8bc7	0.09108692
7	0xbb7d6b4f	-0.0038668697
8	0x3db7455f	0.08948778
9	0xbd8a648b	-0.06757458
